models/cnn_classifier.pth (torch, 551862 bytes, 15 tensors)

conv1.weight f4 [16, 3, 3, 3]
00000000: f450 4b3e 7671 82bd e2ab d3be f2a0 863d
00000010: 8516 04be 5854 1abf c0c8 0ebe b485 52bc
00000020: 3596 403d 91bc 303e b440 333e dbe5 9abe
00000030: 5d78 093d 360e 1bbe 4486 0cbf aef3 c0be
00000040: 5094 b1bc 040c 673e cd92 823e 114c 16bd
00000050: 02ae d9be bea3 1fbe 62bc 20be e32c 3cbe
00000060: df02 3bbe 807c 20be d5f5 793e a7dc 8f3e
00000070: 7283 873b 51c9 4fbe 80ef 8a3e 6f5c 853e
00000080: b151 3fbd ea36 873e 0a9f 363e ed3c 85be
00000090: ed36 8a3c 1b5b bf3d 784f 7ebe 1308 0b3d
000000a0: 20e2 b23d af1c c73b 7dc2 8c3e f32e dfbd
000000b0: 9ed0 c4be 53c1 4d3e 64c6 e03d 1af8 a9be
000000c0: c47e 303d 5d11 383d 0ff5 06bd b3fd 693e
000000d0: c231 7f3d 350d a3be afc6 85be dece 4cbd
000000e0: 2ba6 983e a479 cbbe 462e 2bbd 74c8 db3d
000000f0: f452 04bf 86ec dcbc 138b 053e 10b5 a7be
00000100: f7f8 333d b2c1 36bd 8d63 24bf 7d4b 433d
00000110: c115 f43d 43af a1be 41a4 6abe 7938 f5bd
00000120: c2c7 2ebe 588d c63d c2c9 4a3e 53c2 0cbf
00000130: cb9b e23d 7989 3abc 7238 b7be 2d4b 883b
00000140: e66b 59be c5c4 673e 9cc1 693d 5403 aebd
00000150: 07e6 82be 6a67 bd3e 2b08 c4be 1ece 8b3d
00000160: 0f15 993e 3c96 b6be f12b a03d 6552 d03e
00000170: b0e9 9f3d 2fbb 8abe a7a4 9d3d e646 97be
00000180: f690 53be fd9c 0e3d c70d a4bd d5dd 8c3e
00000190: 48e0 383e 043c 163c 5e7a acbe 9e3e 3e3e
000001a0: abe1 1dbe 6a50 73bd 8165 9d39 4d6f d5be
000001b0: a003 a63d e92d ecbe d19e 2f3e 779e 273e
000001c0: 8907 393e d4c1 8e3e ed10 203e d0c4 4abd
000001d0: 715c 14be aab5 9ebd 223b 71be 1b1f d7bd
000001e0: 8fef 8abc dbe4 7cbd ce4d 823e d7ef 7f3e
000001f0: 7a0d 8e3d e0ee b53d f529 94bd 1ebd e8be
00000200: 023f 1abe dae1 b0bd 3ff4 b6bc 052e c73e
00000210: 5340 ad3d 66d7 1bbe 8ddc 73be c4ac 8fbe
00000220: 1616 fc3e 934c 17be 7333 79be aa74 6a3d
00000230: f7a1 95be 26f7 823e 028e d1bd 3137 0cbe
00000240: 4ba2 cbbc 9229 f43e 2720 383e b799 0b3c
00000250: 854d 4bbe ad03 183c b84c 483e 2071 f23c
00000260: 4207 ca3d cd62 88be 2d3a e63e 4661 0fbd
00000270: 6a08 afbb c9a7 85be 63cb 47be 7f96 7a3e
00000280: 0cc1 74bd c5fc d0bd 53a6 463c 8c4d 89be
00000290: 87d4 20be 8016 93be 4628 84b9 fd1f 453e
000002a0: b09b d8bd cfe4 9f3e 22ca 8e3e cb96 703d
000002b0: 9499 91be d31c 8cbe acbe e6b8 1b28 17be
000002c0: 2f03 e6bd e92e b23d 40f5 4e3e 6163 a53e
000002d0: 6f3f 90be 7f08 bfbe 3351 adbd 8a42 10be
000002e0: 1671 bebd 0491 df3d 6f55 02be d5e0 a33e
000002f0: 6c20 023e 56e1 8dbe 7f5b c63d ce20 a53e
00000300: fd36 173e 187b cebd c89c 503e f5d0 983e
00000310: 5d09 b13c 4843 62be 4f78 76be 154c 813e
00000320: 1ab6 ca3d 323a 483e ea2c fb3d 27c8 77bb
00000330: b8a9 153e 67bb 7ebe 2563 aabe b20e ddbe
00000340: 372b 64bd 349b d13d eaed 1f3c 44f9 6abd
00000350: c7d3 463e b0a3 b63e 3d1d 42be 5310 8cbe
00000360: 9aef fcbe 06c8 8e3e 92f4 613d 3173 fbbe
00000370: 29c8 633e 9c4a 1d3e 08fa 09bf 2e2b aebd
00000380: 8caf 2cbe 97b2 78be ba80 193e cc83 c43d
00000390: dc18 29bf 6a96 173e 6af9 22bd bae6 4ebe
000003a0: 0cb1 22be 3a50 0abd 435f cbbe c4a3 433e
000003b0: 8014 813d 6ee8 19bf cb43 593c 744f ed3d
000003c0: 85d4 b2be 1aae 873d e960 683d 6bf8 af3e
000003d0: 3183 42be aee2 e3be 84f8 1f3e b603 303d
000003e0: 4c8a 93bd ccf1 37be 721b a63e d14b 06be
000003f0: 638e 853e 7dd8 363d f520 84be 1a10 84bd
0.198551 -0.06369297 -0.41342074 0.06573667 -0.12899216 -0.6028495 -0.13943768 -0.01284926
0.04701825 0.17259432 0.17505151 -0.3025349 0.033562053 -0.1514214 -0.54892373 -0.37685913
-0.021677166 0.22563177 0.25502625 -0.036693636 -0.4251557 -0.15589806 -0.15696862 -0.18376498
-0.18262814 -0.15672493 0.24410184 0.28098032 0.0041355425 -0.2029164 0.2713585 0.26047084
-0.046708766 0.26409084 0.17834106 -0.26023045 0.016871894 0.09343549 -0.24835002 0.033943247
0.08734536 0.0060764174 0.27492133 -0.10897627 -0.38440412 0.20093279 0.1097534 -0.331971
0.043089643 0.044938434 -0.03294855 0.22850685 0.062303312 -0.31846014 -0.26128146 -0.05000197
0.29814276 -0.39741242 -0.041792177 0.10731593 -0.51689076 -0.026968252 0.13041334 -0.32755327
0.043938603 -0.044618316 -0.642144 0.047679413 0.11918212 -0.31579027 -0.2291422 -0.11973662
-0.17068389 0.09694928 0.19803527 -0.54984015 0.110648714 -0.011385315 -0.35785252 0.0041593523
-0.21232566 0.22633655 0.057069406 -0.084967285 -0.25566122 0.3699296 -0.38287482 0.06826423
0.2989888 -0.35661495 0.07820881 0.40687862 0.07808244 -0.27095935 0.076974206 -0.2954628
-0.20660767 0.034817684 -0.0801044 0.27512994 0.18054307 0.009169582 -0.3368711 0.18578574
-0.15418117 -0.05940286 0.00030021 -0.41686478 0.0810616 -0.46128777 0.17150427 0.16369043
0.1806928 0.27882254 0.15631457 -0.0495041 -0.14488389 -0.077494934 -0.23557714 -0.1050398
-0.016959934 -0.06174169 0.25449985 0.24993835 0.06936164 0.088834524 -0.07234565 -0.45456785
-0.15063098 -0.08636828 -0.022333262 0.38902298 0.084595345 -0.15218887 -0.23814602 -0.28061497
0.492356 -0.14775304 -0.24336033 0.057240166 -0.29225132 0.25579184 -0.10232164 -0.13692929
-0.02485766 0.47687966 0.17981015 0.008520535 -0.1985379 0.00927822 0.19560516 0.029594958
0.098646656 -0.2663788 0.4496626 -0.035004877 -0.005341579 -0.26104572 -0.1951118 0.24471472
-0.059754416 -0.10204462 0.012124616 -0.26816976 -0.15706073 -0.28728104 -0.00025207008 0.19250484
-0.1057657 0.31229255 0.2788859 0.058737557 -0.28437483 -0.2736574 -0.0001100277 -0.14761393
-0.11231076 0.08700354 0.20210743 0.32302383 -0.28173396 -0.3731117 -0.08462753 -0.14087883
-0.09298913 0.109163314 -0.12727903 0.3200747 0.1270768 -0.2771098 0.0968542 0.3225159
0.1476707 -0.10082072 0.20372307 0.29846922 0.02161091 -0.22095978 -0.24069332 0.25253358
0.09898014 0.1955345 0.12264426 -0.003780851 0.14615524 -0.24876176 -0.33278766 -0.43175274
-0.055705275 0.10234681 0.009761313 -0.057366624 0.19416724 0.3567176 -0.18956466 -0.27356204
-0.4940155 0.2788698 0.05516488 -0.49111322 0.22244324 0.15360492 -0.5389714 -0.085043296
-0.16863841 -0.24286877 0.14990512 0.09595451 -0.6605356 0.14803472 -0.03978864 -0.20205203
-0.1588785 -0.033767916 -0.39721116 0.1910544 0.06302738 -0.60120285 0.013260792 0.1158742
-0.34927765 0.06625004 0.056733046 0.34369215 -0.18995358 -0.4450888 0.15622145 0.04297229
-0.072041124 -0.17963332 0.32442814 -0.13114859 0.26085195 0.044640053 -0.25806394 -0.06448384

conv1.bias f4 [16]
00000000: b2ba 603e 0669 ac3d d060 12bd c8bb fb3d
00000010: 158d 9dbd cea4 dd3c 7ed7 9cbd e445 e53e
00000020: c90d 86bc cac6 903e 57c7 6f3e ad91 2bbe
00000030: e69e 1fbe f6c0 213e 60fe fe3d 4a78 bd3d
0.21946219 0.08418469 -0.03573686 0.12291676 -0.07692925 0.027056124 -0.076582894 0.44779885
-0.016363995 0.28276664 0.23415886 -0.1675479 -0.15587959 0.15796265 0.12450862 0.09251459

bn1.weight f4 [16]
00000000: 15a5 7f3f 1da5 713f 83ad 583f 3dbb eb3e
00000010: b76b 6c3f f07c 8c3f 4479 ac3f aa0b ac3f
00000020: eda7 6c3f d6c8 fd3e f8ab ac3f c5a5 9c3f
00000030: bea2 923f 4b4a 713f ed89 5b3f 8ed9 3c3f
0.9986127 0.9439257 0.8463976 0.4604129 0.9235186 1.0975628 1.3474507 1.344106
0.92443734 0.49567288 1.3489981 1.2238089 1.1455915 0.9425399 0.85757333 0.7376946

bn1.bias f4 [16]
00000000: 5826 273e f8da e6bd 9e33 24be 9ab3 febd
00000010: de0b a9bd 15f2 2dbe 3840 aa3e 7744 563b
00000020: 2885 38be c6c2 d4be 3a52 6fbe e87d bdbe
00000030: f9b6 a5be a72c 14bd eec8 e6be 581b 6fbe
0.1632322 -0.11272234 -0.16035315 -0.124366 -0.082542166 -0.16986878 0.3325212 0.0032694617
-0.18019545 -0.4155485 -0.2337121 -0.3701012 -0.3236616 -0.036175396 -0.45075172 -0.23350275

bn1.running_mean f4 [16]
00000000: 53e5 703e ceb4 8b3d f8b4 28bd 58f1 933d
00000010: ca28 20bd 4386 293b 8ad0 3fbd ae3b e63e
00000020: dcf5 1dbd 529a 903e f917 463e 3463 2bbe
00000030: ee08 20be 3247 113e 1a82 a73d 1daa 273e
0.2352498 0.06821595 -0.04118821 0.07223767 -0.0391014 0.002586738 -0.046829738 0.44967407
-0.038564548 0.28242737 0.19345082 -0.16737062 -0.15628406 0.14187315 0.08179112 0.16373487

bn1.running_var f4 [16]
00000000: 1e1c a33f c9b9 f33e 486d 0140 4c3d 303e
00000010: cd67 913d 745a 5b3d c62b 803e d287 273d
00000020: 7d93 e53f 20fb e33e 82f5 b83f a015 263e
00000030: d79f 9f3e de85 bb3d a190 903e c4db 3a40
1.2742956 0.4760268 2.022295 0.17210883 0.070998766 0.05355306 0.25033396 0.040901013
1.7935635 0.4452753 1.4449923 0.16219187 0.31176636 0.091563925 0.28235343 2.9196634

conv2.weight f4 [32, 16, 3, 3]
00000000: 8a8f 9fbe a5eb a3be 42bc 09be 01c2 b9bc
00000010: fb3f 8bbe 561f 44be a5b1 473e 3aab 6bbe
00000020: 0f80 71bd 0650 58be a38f 9dbe 60df dd3d
00000030: 53e3 92be a5bc c0be 514c 6abd 9aad a4bd
00000040: 2185 c8be b8df a33c 3457 223d 039e 97be
00000050: b387 76be 80b3 e93e 71b0 5b3e e2cb 9c3d
00000060: 932d 083f 16bb d73e 9e0b 0abc dcb7 98be
00000070: 8152 d1bd 5fdb 51bd 27c3 2d3e b2ee 8bbe
00000080: e07f b6be fa4d 5f3e 20b5 65be 4c03 923d
00000090: 69bf 0fbd b8b8 c9bd 3ab5 793e a397 49bd
000000a0: 6547 98bd a48c 9abc e96d 623e 7d7b dcbd
000000b0: 2c4f 61be 00a0 76bd 04d7 54be 961b ecbd
000000c0: 20df 0fbe 2412 35be ea8a 1bbe 6f51 38be
000000d0: 1c89 953b 8fa3 6fbd d27b e4be 40eb 1bbe
000000e0: 1136 eb3d 5e2e b83d b662 52be 80c6 b7bc
000000f0: 348e 763d 60a5 e5ba 6741 d1bd 3edc ce3d
00000100: ae69 2ebe f833 c6bd 6d50 ce3c b3b7 02be
00000110: c171 c43c a05d 063d 687a c4bd 0e3b 9b3d
00000120: 61d2 803d 7be3 a9be dabe 18be 9163 cf3e
00000130: f51d 8b3e ab7f 513d fbac e53e 0ab6 f43e
00000140: 3ccb a4bd cc3f 2fbe 792b babd 738c 62bd
00000150: 808c 7abd 2c9d dfbd 5f67 86be 51bf 343d
00000160: f629 3b3d 11e3 e9bb a2b1 7bbb 23e4 933e
00000170: 0a05 c8bd 0c8b 8dbe f9f5 9e3d ddbe f7bd
00000180: f7cd a8bd 33d2 a13c 177f 47bd 7bb3 81be
00000190: 7b0b cabd 3f25 a1bd 9b4a 33be 2303 40be
000001a0: 25a2 c9bd 4722 913e 929e 87bd ccd4 c6bd
000001b0: e200 d63d 5547 e4bd f5e5 e63d a1aa b03c
000001c0: fed0 85bd 89ab 3dbd 9e9e fd3c 444d a23c
000001d0: ab6c 88bd 269d 35be 23f2 a1bd ab95 4b3e
000001e0: 5f8e 003d c72e 49be 3f04 f1bd a151 873e
000001f0: 0f1a dfbc 0a57 15be 82bd 25bd 77e6 eb3d
00000200: 799b 943b b8d1 21be 673c 473d b8e6 0dbe
00000210: 65bc b13b ee4c 36bd d64c 86bd dedf 97be
00000220: 1fd2 3ebe a36d 53be 7d20 a33e 1321 97bd
00000230: e27a 45be e3fd 203f 59e0 6e3e 4dca 98bd
00000240: 24c8 fc3b f8b9 ecbd eea4 07be 43b6 12bc
00000250: 2bfb 01be b477 d5bd 3c67 80bd 883c 46be
00000260: e3a1 1fbe d9e9 a9bc 0d1d ae3c 11bd 3e3e
00000270: 043d 29bd 3312 0ebd 7774 093e 0782 5a3d
00000280: 8c02 54bd 4d8e 5d3d 78be 57bc 9084 aebd
00000290: 65d5 c3bd 0834 ca3d bfd6 afbd 74d3 1cbe
000002a0: 461f 30be 1ce5 52be a890 35bc ffa3 51be
000002b0: e152 12bd 6290 c03d cf5b 28bd a444 06be
000002c0: 3b8c a1be a995 14be 11f4 1bbe 03e3 8abc
000002d0: 3bf6 69be abf1 d0bc 7ec8 cdbc 2ebc 26be
000002e0: 167e 94be 1c06 253e 897e fe3e e88e 633e
000002f0: 4d68 a9bd cc01 d83d 46a9 583e fe02 5f3d
00000300: 9459 d5bb 06a1 b6be 1b30 87be 70b0 3ebc
00000310: 9b25 813e 520a 983e 37cd 52be 0c21 90be
00000320: 959e 35be d920 83be 277c c6bd 650a 5b3e
00000330: 7fca 5c3f 080a e53e 4211 26be 48de bb3d
00000340: b8c6 cfbb 562d aabc 4967 7ebd e556 c7be
00000350: b2fa 55be a370 073d 160e 0d3e cc06 f33b
00000360: bf49 1fbe c7e4 1bbe 20bf e2bd c2df 3cbd
00000370: 78a6 50bd 141f 3bbe da57 4e3d fa1e b3bd
00000380: da3d 4abe b1c9 8cbc 83e7 25be ef76 ac3d
00000390: 3ff6 60be f694 7ebd d4e3 1e3e 9631 373e
000003a0: 33ce 17be f064 c5bd 5033 5ebe 8753 f63c
000003b0: 6881 87be 70ff 69be 2135 753d f516 5ebd
000003c0: 276b 5b3e edc0 bd3d f698 d73c 1132 c3bd
000003d0: ca9c 53bd 5187 d9bd cec8 4abe b423 fbbe
000003e0: a59f ed3d 05d7 753e 6214 953e 7229 2bbe
000003f0: 5ec9 703d 6eb0 183d fff1 48bd 8bd6 87bd
-0.311642 -0.3201572 -0.13450721 -0.022675516 -0.2719725 -0.19152579 0.1950136 -0.23014536
-0.058960017 -0.21124277 -0.3077365 0.10833621 -0.2868906 -0.37643924 -0.057201687 -0.08040924
-0.3916407 0.020004138 0.039633945 -0.2961274 -0.24075203 0.4564476 0.21454026 0.07656075
0.5319454 0.42134923 -0.008425621 -0.29827774 -0.102208145 -0.0512346 0.16968976 -0.27330548
-0.35644436 0.2180709 -0.22432375 0.07129535 -0.035094652 -0.098496854 0.24385539 -0.049216878
-0.074354924 -0.01886589 0.2211224 -0.10765741 -0.22002858 -0.06021118 -0.20785147 -0.11528699
-0.14049959 -0.17682701 -0.1518971 -0.17999814 0.004563464 -0.05850559 -0.44625717 -0.1522646
0.11484922 0.08993219 -0.20545468 -0.02243352 0.06019421 -0.0017520599 -0.10217553 0.101006016
-0.17032501 -0.09677881 0.025184834 -0.12765388 0.023980023 0.03280413 -0.0959366 0.07579623
0.062901266 -0.33181366 -0.14916554 0.4050565 0.27171293 0.051147144 0.44858536 0.47795135
-0.080465764 -0.1711418 -0.09090323 -0.055309724 -0.061169147 -0.1091865 -0.2625074 0.044127766
0.045694314 -0.007137664 -0.0038405438 0.28884992 -0.09766586 -0.27645147 0.07761759 -0.12096951
-0.0824241 0.019753551 -0.048705187 -0.25332245 -0.09865471 -0.07868432 -0.17508928 -0.18751197
-0.0984538 0.28346464 -0.06622042 -0.097085565 0.10449387 -0.11146418 0.112743296 0.021565737
-0.06534003 -0.046306167 0.030959424 0.019812234 -0.06661352 -0.17735729 -0.07907512 0.19881313
0.031385776 -0.1964675 -0.11768388 0.26429465 -0.027234105 -0.14583984 -0.04046393 0.11518567
0.0045351353 -0.15802658 0.04864159 -0.13857543 0.0054240697 -0.04450696 -0.06557624 -0.29662985
-0.18634842 -0.20647292 0.31860724 -0.07379355 -0.19285157 0.628874 0.2332777 -0.07460461
0.0077142883 -0.11558908 -0.1324651 -0.008954587 -0.12693469 -0.10423222 -0.062696904 -0.19359028
-0.15589099 -0.02074139 0.021254087 0.1862681 -0.041317955 -0.034685325 0.13423334 0.05334666
-0.05176024 0.054090787 -0.01316797 -0.08521378 -0.09562186 0.098732054 -0.085858814 -0.15315038
-0.1719943 -0.20595211 -0.011081852 -0.20472716 -0.03572357 0.09402539 -0.04110318 -0.13112122
-0.315523 -0.14510216 -0.15229823 -0.01695395 -0.22847836 -0.025505861 -0.025120016 -0.16282722
-0.29002446 0.16115612 0.49705914 0.22222483 -0.08271847 0.10547218 0.21158323 0.054446213
-0.0065109227 -0.35669726 -0.2640389 -0.011638746 0.25224003 0.29695374 -0.20586096 -0.28150213
-0.17736275 -0.25610998 -0.09691649 0.21390684 0.86246485 0.44734216 -0.16217521 0.09173256
-0.006340828 -0.020773571 -0.06211022 -0.38933483 -0.20896414 0.033066403 0.13774905 0.0074165817
-0.15555476 -0.1522399 -0.110716105 -0.04611183 -0.050940007 -0.18273574 0.05037675 -0.08746143
-0.19750157 -0.017186018 -0.16201596 0.08421122 -0.21968935 -0.06215378 0.15516597 0.1789001
-0.14824753 -0.09638393 -0.21699262 0.030069126 -0.26465917 -0.22851348 0.05986512 -0.054221112
0.21427594 0.09265313 0.026318055 -0.09531034 -0.051663198 -0.10621513 -0.19803163 -0.49050677
0.116027154 0.24007805 0.29117113 -0.16715029 0.05878579 0.03727763 -0.04905891 -0.06632718

conv2.bias f4 [32]
00000000: 0970 6dbb 921c a3bd f943 b03c 5086 4dbd
00000010: 80a7 9c3c 5a60 f8bc daf3 853c 7759 fbbc
00000020: b293 7bbd 720f b2bd 2693 7abd 23b4 2dbd
00000030: ad55 b5bd 1829 56bd 50e6 b8bd ec49 8e3d
00000040: 285c 343d 5186 693d e9f3 5dbd 33b3 a83d
00000050: cdda 9ebc c6b3 0bbd aff7 593c 8c0c c6bc
00000060: c228 4abd c1be 1b3d 3e0a 70bd e61e 68bd
00000070: 8298 1dbd c194 32be a1d7 983c f18d f9bd
-0.0036230108 -0.07964434 0.021516787 -0.05017692 0.019122839 -0.030319382 0.016351629 -0.030682309
-0.06142015 -0.08694352 -0.061175488 -0.04240812 -0.08854232 -0.052285284 -0.090283036 0.06947693
0.0440332 0.05701286 -0.05418769 0.082373045 -0.019391442 -0.034106992 0.013303681 -0.024175905
-0.049355276 0.038023714 -0.058603518 -0.056670092 -0.03847552 -0.17439558 0.018657507 -0.12185276

bn2.weight f4 [32]
00000000: 7c1b 523f 383e 653f fa86 1b3f 0a41 553f
00000010: 1425 6b3f e707 6c3f 953b 353f 09ec 213f
00000020: bd55 303f a4e3 113f 5fa2 e73e 8dd3 403f
00000030: b69a 453f b92a 023f 7eb9 203f 3b87 363f
00000040: 1b90 1a3f aaf7 363f 73b1 643f fc84 4c3f
00000050: 52a4 103f c5cc 4a3f 4fae 053f c183 3a3f
00000060: c5f8 1c3f 9102 743f 798b 1d3f b1d7 2d3f
00000070: 6998 593f 814b 633f 91bc 303f b4d1 423f
0.8207319 0.89548063 0.6075283 0.83302367 0.9185345 0.9219956 0.7079404 0.63250786
0.68880826 0.5698798 0.45241067 0.753228 0.77189195 0.5084644 0.6278304 0.71300095
0.6037614 0.71471655 0.89333266 0.7989042 0.5650073 0.79218704 0.522191 0.7285729
0.6131709 0.95316416 0.61540943 0.67907244 0.84998184 0.88787085 0.6903773 0.7610123

bn2.bias f4 [32]
00000000: 8cba fdbe 0916 bbbe 6e88 24bf ea11 aabe
00000010: a9ab ffbe 382d 24bf 6cf3 23bf 0db0 e2be
00000020: 34da 26bf abed bfbe 0d65 19bf 8966 4ebe
00000030: 2bb7 52bf ca6c 0fbf 772a 41bf e163 03bf
00000040: 6cf0 b1be 83ba 0ebf a571 efbe b940 1ebf
00000050: 6f94 13bf 1a88 bcbe 7d2b a6be 2754 17bf
00000060: 6654 08bf 1cd7 1dbf bf04 d9be 9e7a 1abf
00000070: 0d3b 14bf 3ba7 11bf 478f 91be f6f9 88be
-0.49556386 -0.3654025 -0.64270675 -0.33216792 -0.49935654 -0.641315 -0.6404331 -0.4427494
-0.651767 -0.37486014 -0.59919816 -0.20156302 -0.8231074 -0.56025374 -0.7545542 -0.5132428
-0.3475374 -0.55753344 -0.4676639 -0.6181751 -0.57648367 -0.36822587 -0.32455054 -0.5911278
-0.5325378 -0.61656356 -0.42386433 -0.6034335 -0.57902604 -0.568958 -0.28429624 -0.26753205

bn2.running_mean f4 [32]
00000000: 3505 56c0 e84c 04c0 0a84 78bf 430d e23f
00000010: 2884 8cc0 aecd 83c0 a6f6 e43f b30a c0c0
00000020: 4a49 63c0 835c d03f d2f7 f73f 3bb2 a5bf
00000030: 19f7 163f 928c ffbf 92fa 0b40 426d c4bf
00000040: 48e7 b23f d7a8 d13f 3329 cdc0 b703 7dc0
00000050: da30 4fc0 e6f5 503f d22e 62c0 6a65 6fbf
00000060: 498c 523f 156d 5440 da21 893f 2088 c23f
00000070: 41bc cdc0 7a0b 4ebf 8ca1 543f cbc0 a73f
-3.3440678 -2.067194 -0.97076476 1.7660297 -4.3911324 -4.1188574 1.7887771 -6.001306
-3.5513482 1.6278232 1.9372504 -1.2945017 0.5897079 -1.9964774 2.1871686 -1.5345843
1.3976831 1.6379651 -6.411279 -3.9533517 -3.2373567 0.8162521 -3.5341077 -0.9351412
0.8224531 3.3191578 1.0713456 1.5197792 -6.42923 -0.8048626 0.83059 1.3105711

bn2.running_var f4 [32]
00000000: e19b 0c41 5b4e cc40 bfca 3241 e7c2 8b41
00000010: 6469 1741 2f05 db40 7a06 5441 1bee d140
00000020: bde3 9c40 9e1b 2b41 6812 8940 1b64 1741
00000030: 961e a040 ca2a 9f40 65ab a440 8c2d c740
00000040: 2548 2241 e6c7 9840 b837 1a41 a443 1941
00000050: ff92 9940 0105 b840 746e 1742 fb17 b040
00000060: b16a e840 83d4 8340 c525 3641 dfb3 7840
00000070: 8e30 3941 aa88 b040 8816 3641 7b65 8c41
8.788056 6.384565 11.174499 17.470167 9.46323 6.844383 13.251581 6.5603156
4.9028 10.6942425 4.283497 9.46194 5.0037336 4.9739733 5.145922 6.22431
10.142613 4.7744017 9.638603 9.579014 4.799194 5.750611 37.857864 5.5029273
7.263024 4.1196914 11.384221 3.8859785 11.574354 5.5166826 11.380501 17.549551

fc1.weight f4 [64, 2048]
00000000: 9e1a cd3b b9e6 e93b 094f 243c fd34 9e3b
00000010: f73d 423c 8b0c e1bc d05d 9cbc 0535 a5bc
00000020: 755a e03b 545c 81bc 95dd b8bc 2f36 c9bc
00000030: ab47 acbb 516b b13b 8f3b b1bc e3f4 dbbc
00000040: b8cb babb f6de a8bc 5f26 e13b 909b 8c3b
00000050: 5a67 aebc 4854 823c e63c 6c3c 6355 02bb
00000060: c97d d0bc 5e96 873c 6dc3 3abc d7a7 99bc
00000070: f53f 46bb 5efd 61bc bead 45bc e772 b4bb
00000080: 67f3 1b3c 5bbc 5c3c 8b1e 903a 9b07 cbba
00000090: 79dc a93a ee6d a93b 6d39 40bc c37b 6e3c
000000a0: 5631 6dbc fb3f 92bc f2f0 b63a 9e62 403b
000000b0: 2266 7abc 0a3c a3bb 37da a6bc df15 893b
000000c0: 77ca 57bc 4433 7dbc 7466 afbc 0d31 563c
000000d0: 92ec 46bc c8cc 4ebc d82c 9cbc a029 90bc
000000e0: e011 b8bc 5b26 48bb 4f0c 40bc 67d0 2bbc
000000f0: 2ff2 8bbc c0ee 8cbc 96ce 5fbb 74bf 423c
00000100: d14d e43b f6af 963a 9d6e c8bc 332e 53bc
00000110: 4ed5 053c 71b9 ccbc f3bd 2c3c 6a52 443c
00000120: 2214 bfbc bb73 4b3c 5d8b 06bc 84dc bb3b
00000130: 34b3 c2bb 483e 30bb 1b84 453c 76cd a13b
00000140: 4dca a4bc e0dc 59bc 5912 ad3b 848f 42bc
00000150: 06b0 33bc 2616 383c 0bfd 813b 8d8c 63bc
00000160: 2ef7 333b 0d4a 92bc 1eac 70bc ed6c 73ba
00000170: c2a9 713b 98a3 b9b9 905d 20bc dc45 aabb
00000180: c1e7 d9bc 4637 44bc 71dd 58bc 7dd3 ceba
00000190: 1729 43bb d0e6 8bbc ac8e a2bb d3d2 cabc
000001a0: 3360 e3bc c80e 1ebc 0f99 33bb aa3d c83a
000001b0: 00ff 803c ac56 1e3c 0180 71bc 3415 0b3c
000001c0: 9593 e2bb 0964 cabc 3f70 453c e1fb 44bb
000001d0: 1cbd b9bc 9ad5 5fbc f935 d2bc 7c0e 32bb
000001e0: 44d0 babc dc47 333c a9b6 f53b a1ac 86bc
000001f0: d624 15bc d870 5b3c ac8e 613c 8b31 4439
00000200: 5656 fcbb 7bd0 cfbb d369 1a3a edef 22bb
00000210: 33c0 693c fc54 2ebc 56f7 d53b fc5e ea3a
00000220: f1b6 a0bc 1966 e639 819c e1bc 47f7 74bc
00000230: 5d52 683c 279e 5a3c 255c 4fbc df27 b1bc
00000240: 0550 73bc 61b1 493c 7fd2 0a3c c21e 6ebc
00000250: ef3f e03b 745e adbc 04c1 35bc ed2c 10bb
00000260: e406 b9bc 4dea 123b ca20 5ebc 3f0b 9ebc
00000270: bbdf 7dbc 0ae3 81bc a4e3 043c 6e37 92bb
00000280: f700 76bc c807 b23c 5e41 f53b d153 d23b
00000290: ef71 1f3c 386d a63b 994c b73b 5562 383c
000002a0: 6c76 10bc 1d50 8dbc 3931 01bc 4fa7 173c
000002b0: 49e6 553b 7f7f 2f3a 735b b73b 1713 f73a
000002c0: 229e f13a 75e8 77bc 072f 323c 7e46 b2bc
000002d0: 06c7 88bb 269f 7cbc 8151 c1bb 1f8c 4abc
000002e0: 6138 eebb 4397 2cbc 57cc 493c b04a 87bc
000002f0: 1083 203c ddfe a3bc 335f 4d3c 1ff6 3bbc
00000300: 05d5 553c baf0 e63b 7dfd 4bbc 81ab 7c3a
00000310: cd71 b03b 8405 683c a32b 4bbc 6305 a7bc
00000320: b666 16bc 8f75 013c 3566 75bc 3bed 75bb
00000330: 8d3d d2bb b737 f239 1006 9bbc 25fe b7bc
00000340: b884 e2bc b0ab 613c 8f3d c1bc 82d5 f93b
00000350: a0df 213c 7a2c 94bb 2276 0d3c d376 5a3b
00000360: d307 58bc 5546 543c 6524 b4bc 99b4 423c
00000370: ff20 223c d387 0d3a 6aad ecbb f3af 50bc
00000380: a6bc 6e3c 836f 713c fe25 2abc 16de c2bc
00000390: c825 8bbc 61ec a53b afcf 93bc e6a6 e63b
000003a0: f11d aabc 170d 063b 80ba 04b9 9526 d3bb
000003b0: 3cb9 543c f0fa 9b3c c7af 503c 3b32 afbc
000003c0: f6bd e2bb f768 41bc 25b6 88bc ff8a 51ba
000003d0: ed47 09bc 8cd9 523c d29c c9bc 08ba 7bbc
000003e0: 3b87 53bb 5c47 f73b e573 ffbb 64bf 67bc
000003f0: 069a debc c7f0 afbc de47 1dbc 53b6 a4bc
0.0062592765 0.0071381 0.010028609 0.004828094 0.011855594 -0.027471801 -0.019087702 -0.020166883
0.006846721 -0.015791096 -0.022566596 -0.02456197 -0.005257567 0.0054144044 -0.021634845 -0.02685017
-0.0057005547 -0.020614129 0.0068710293 0.0042910054 -0.021289516 0.015909329 0.014418816 -0.001988732
-0.025450604 0.016551193 -0.011399132 -0.01875679 -0.0030250524 -0.013793318 -0.012065349 -0.0055068615
0.009518481 0.013472642 0.0010995431 -0.0015489938 0.0012959383 0.0051705753 -0.011732441 0.014555874
-0.014477095 -0.017852774 0.0013957305 0.0029355655 -0.015283139 -0.0049815224 -0.020367725 0.0041835154
-0.01317083 -0.015454117 -0.021411158 0.013073218 -0.012141364 -0.012622066 -0.019064352 -0.017597973
-0.022469461 -0.003054044 -0.011721685 -0.010486699 -0.017083256 -0.017203689 -0.0034150234 0.011886466
0.0069672843 0.0011496532 -0.024466807 -0.012889433 0.008168532 -0.02499077 0.010543334 0.01198254
-0.02332503 0.012417729 -0.008211938 0.0057330746 -0.005941773 -0.0026892591 0.012055422 0.004937823
-0.020115996 -0.01329729 0.005281728 -0.011875037 -0.01096726 0.011235749 0.0039669327 -0.01388849
0.0027460563 -0.017857576 -0.014689473 -0.00092859456 0.0036874865 -0.00035407837 -0.009787932 -0.005196316
-0.026599767 -0.011976069 -0.0132363895 -0.0015779581 -0.002977913 -0.017077833 -0.0049608555 -0.024758732
-0.027755832 -0.009647079 -0.0027404462 0.0015277166 0.015746593 0.009664219 -0.014739991 0.008488942
-0.006914566 -0.024705904 0.012050687 -0.0030057358 -0.022673182 -0.013661766 -0.025660502 -0.0027169278
-0.022804387 0.010942426 0.0074985814 -0.016439738 -0.009103021 0.013393603 0.013766926 0.00018710473
-0.0077007217 -0.0063419915 0.0005890403 -0.0024862245 0.014267015 -0.010640379 0.006529729 0.0017881091
-0.019618483 0.00043945087 -0.027540447 -0.014951534 0.014179793 0.0133433705 -0.012656246 -0.021625457
-0.014850621 0.012310357 0.008473038 -0.0145337 0.006843559 -0.021163203 -0.011093382 -0.0021999434
-0.022586294 0.0022417486 -0.013557622 -0.019292472 -0.015495236 -0.015855331 0.008110914 -0.004462174
-0.0150148785 0.021732226 0.007484599 0.006418683 0.009731754 0.005078938 0.005593848 0.011253913
-0.0088172965 -0.017250115 -0.007885271 0.009256198 0.0032638481 0.00066947186 0.0055956184 0.0018850294
0.0018433968 -0.015131106 0.01087547 -0.021762129 -0.004174116 -0.015418803 -0.0058996086 -0.012362509
-0.0072699045 -0.0105341105 0.012316785 -0.016515106 0.009796873 -0.02001899 0.012534904 -0.011472254
0.013051276 0.00704774 -0.012450573 0.0009638593 0.00538466 0.014161471 -0.0124005405 -0.02038831
-0.009179762 0.007901563 -0.014977981 -0.0037525434 -0.006416029 0.00046199348 -0.01892379 -0.022460053
-0.027651176 0.013773844 -0.023588924 0.007624329 0.0098799765 -0.0045219036 0.008634122 0.0033334985
-0.013185459 0.012956222 -0.02199001 0.011883878 0.009895562 0.00053989625 -0.007222821 -0.012737262
0.0145713445 0.014736059 -0.010385035 -0.02378754 -0.016985789 0.005063579 -0.018043367 0.007038939
-0.02076623 0.002045458 -0.00012657978 -0.0064438083 0.012983616 0.019040555 0.012737221 -0.021386256
-0.0069196178 -0.011804811 -0.016688416 -0.00079934293 -0.008378965 0.01286925 -0.02461091 -0.0153641775
-0.0032276649 0.0075463485 -0.007795798 -0.014144752 -0.027173053 -0.021477116 -0.009599654 -0.02010647

fc1.bias f4 [64]
00000000: e637 443b 9e73 53bc 1ea9 7ebc 8c1e 2dbd
00000010: 3c7e ed3c f503 62bc 0420 163c 6d59 12bd
00000020: 3716 12bd 5f4f c9bc c62f e23c 3fda b1bc
00000030: 8d7c 5b3d a6c1 fcbc bdde 9dbd b3f4 ccbc
00000040: f409 22bd 8a82 c4bd 2afb c0bc 831e d93b
00000050: fc34 273c 2260 56bb 2cc1 e0bb 7483 44bd
00000060: 9343 28bc 3f33 2c3c 8542 8f3b 453a 14bc
00000070: 6aca fabb 8725 d8bb bf12 55bd cc72 b2bd
00000080: 8d93 71bc dadc 563a bc1f 46bb 8aa0 a9bc
00000090: 5ed0 adbd b136 a63b 66de 7bbd 5b7d 443d
000000a0: 448d e83b 4077 a53d dd2e 133c 9ad3 e8bc
000000b0: 254b e03a 699b 0abe b4b8 353a f6af e63c
000000c0: cd7d 833d 01bc 653d 05b7 053c 3063 2dbc
000000d0: ab87 863c 2d67 68bc d1f8 533c 7a5a e03b
000000e0: 967c c4bc 9344 27bc 3efe dbbc 5dab 7abd
000000f0: deb7 81bc 33c8 fe3c 5151 86bc ffb1 a3bc
0.0029940545 -0.012905983 -0.01554325 -0.04226546 0.028990857 -0.013794889 0.009162907 -0.035729814
-0.035665717 -0.02457398 0.02761067 -0.021710513 0.053585578 -0.030854058 -0.077084996 -0.025019025
-0.039560273 -0.09595211 -0.023557264 0.0066259517 0.010205504 -0.0032711108 -0.0068589654 -0.047976926
-0.010270017 0.010510265 0.0043719434 -0.009047096 -0.007653524 -0.0065962705 -0.05201983 -0.08713302
-0.0147446515 0.00081963616 -0.0030231318 -0.020706434 -0.084870085 0.0050724377 -0.061491393 0.04797111
0.0070969183 0.08079386 0.008983341 -0.028421212 0.0017112239 -0.13535847 0.0006932125 0.028160077
0.06420479 0.056087498 0.008161311 -0.01058273 0.016422113 -0.014184755 0.01293774 0.006846723
-0.023985188 -0.01020922 -0.02685463 -0.06119858 -0.015834745 0.031101322 -0.016396197 -0.019982336

fc2.weight f4 [1, 64]
00000000: c8c4 56bc 1942 533c 4ffe e5bd 9d58 ed3c
00000010: 00a5 58be 97e4 2dbd 9bec d4bd e4f7 1f3e
00000020: bc65 853a 7cfe 0dbd 2e32 1bbe 72d9 1e3b
00000030: 3737 52be 534e a0bc ee94 b43e 155b 413b
00000040: 9a3d ddbd 6466 7b3e 5300 1dbc 59a0 953d
00000050: b790 2cbe 5554 edbd 5d2b 95bd 0c4e c53d
00000060: 38cb 123d d1db 3fbe 3801 b13d b4fa 96bc
00000070: 4f53 d73d cfd1 f0bc 016d a2bb ce01 a33d
00000080: df95 0dbd 07e0 463d e72a 903d 5c8a 933d
00000090: c5cf 65bc baf1 a03c 10bf 003f 1022 19be
000000a0: bbe4 4fbd 1a08 4abe de6b 01bd 1185 8a3d
000000b0: 319b 67be 927a 1f3d 3858 ee3d 360e 4ebe
000000c0: 6fd8 8ebd 6952 29be f736 e13c 1840 abbd
000000d0: 2dcb e43d 464f 4ebc e51f dabd db17 a9bd
000000e0: 32b0 173d bcbc e3bd bbc8 17bd b686 bc3b
000000f0: b78a efbd 581b cbbd f250 473d 8e61 20bd
-0.01310844 0.012894177 -0.11230146 0.028972918 -0.21156693 -0.04245433 -0.103966914 0.15621907
0.0010177414 -0.034666523 -0.15155861 0.0024238494 -0.20528875 -0.019568598 0.35269874 0.0029503752
-0.10802765 0.24550778 -0.009582597 0.073059745 -0.1685208 -0.11588351 -0.072836615 0.09634027
0.035838336 -0.18736197 0.086428106 -0.018430091 0.10513937 -0.02939692 -0.004956842 0.079593286
-0.034566756 0.048553493 0.07039433 0.07204124 -0.014026587 0.019646514 0.5029154 -0.149544
-0.050755244 -0.19729653 -0.03159701 0.06763662 -0.22617795 0.03893525 0.1163792 -0.20122609
-0.06974875 -0.16535343 0.02749203 -0.08361834 0.11171565 -0.012592142 -0.10650615 -0.08256503
0.037033267 -0.111199826 -0.037056666 0.0057533635 -0.1169638 -0.09917325 0.04866118 -0.039155535
